tools/Deep_pytorch/data/models/classnet2.pkl (torch_old, 9673 bytes, 4 tensors)

weight f4 [10, 2]
0.028471522 0.61672527 0.5085524 0.45514348 -0.102343686 -0.32880494 -0.11692091 0.12883799
0.3720962 -0.4695268 0.6370679 -0.030581266 -0.6785329 -0.46530306 0.6020769 0.6239127
-0.5995701 0.5394787 0.3796356 0.44094053
00000000: 1c3d e93c b5e1 1d3f 7d30 023f 9108 e93e
00000010: 9199 d1bd 1f59 a8be 3b74 efbd 1bee 033e
00000020: 6583 be3e d165 f0be e216 233f 9085 fabc
00000030: 55b4 2dbf 343c eebe b621 1a3f beb8 1f3f
00000040: 6d7d 19bf 471b 0a3f 995f c23e f5c2 e13e

bias f4 [10]
0.6248861 -0.34108052 0.27337706 0.2880259 -0.21406272 0.25752497 -0.1565574 0.4255618
-0.20940137 -0.24898197
00000000: 89f8 1f3f 1ba2 aebe 14f8 8b3e 2178 933e
00000010: 4233 5bbe 50da 833e 9550 20be 3ce3 d93e
00000020: 506d 56be 21f5 7ebe

weight f4 [2, 10]
0.21852146 0.23052837 -0.24343023 0.0125563275 0.16100964 0.090413794 -0.100093976 0.18048163
0.07606471 -0.11814895 -0.32486248 -0.27887854 0.37954697 -0.069694184 0.021392232 -0.27508843
0.51201993 0.0520986 -0.20372176 -0.36728105
00000000: 17c4 5f3e a10f 6c3e c645 79be 0eb9 4d3c
00000010: b6df 243e de2a b93d 12fe ccbd 2dd0 383e
00000020: d1c7 9b3d 14f8 f1bd 6054 a6be 2bc9 8ebe
00000030: fb53 c23e d3bb 8ebd c33e af3c 64d8 8cbe
00000040: bd13 033f 5765 553d 709c 50be 430c bcbe

bias f4 [2]
-0.25418383 0.012960381
00000000: 6224 82be c757 543c
