tools/Deep_pytorch/data/models/classnet1.pkl (torch_old, 4572 bytes, 4 tensors)

weight f4 [10, 2]
0.6216836 0.077115215 -0.5556354 -0.3635939 0.14461721 -0.5550365 0.4797025 -0.5019448
-0.6760226 -0.6876048 -0.21482581 0.40614164 -0.6759078 0.58077234 -0.31621546 0.1783719
0.07913961 -0.5687351 0.72814184 0.53829324
00000000: a826 1f3f 95ee 9d3d 1f3e 0ebf fb28 babe
00000010: 8916 143e df16 0ebf 919b f53e 747f 00bf
00000020: d10f 2dbf de06 30bf 4cfb 5bbe ccf1 cf3e
00000030: 4b08 2dbf 7fad 143f fee6 a1be 20a7 363e
00000040: f313 a23d a098 11bf 8167 3a3f 96cd 093f

bias f4 [10]
0.7130695 0.40875602 -0.46055055 0.577971 0.038517963 0.3122456 -0.56674373 -0.19362599
-0.7212941 -0.18988366
00000000: b98b 363f 7848 d13e 48cd ebbe e8f5 133f
00000010: 03c5 1d3d a8de 9f3e 1e16 11bf e445 46be
00000020: bba6 38bf dd70 42be

weight f4 [2, 10]
0.28650257 -0.47193286 0.038835343 0.08346871 -0.26747608 -0.11589212 -0.248996 -0.1072191
0.07159425 0.52574337 -0.036442216 0.18803272 0.17284137 -0.22395484 0.04143893 0.05186374
-0.17529781 0.16179338 -0.15601876 -0.37044877
00000000: 77b0 923e 2fa1 f1be cf11 1f3d a5f1 aa3d
00000010: a0f2 88be d958 edbd cff8 7ebe b095 dbbd
00000020: 02a0 923d 1e97 063f 6f44 15bd a68b 403e
00000030: 54fd 303e 6b54 65be debb 293d 136f 543d
00000040: 4581 33be 2aad 253e 62c3 1fbe 76ab bdbe

bias f4 [2]
-0.2532847 0.15783176
00000000: 88ae 81be a69e 213e
