use/emotionclass/emotiondemo/data/models/classmodel.pkl (torch_old, 270029 bytes, 6 tensors)

weight f4 [16, 1, 5, 5]
0	0x3dbbda79	0.0917253
1	0xbdb6fa3f	-0.089344494
2	0xbcf39ffb	-0.02973937
3	0x3db7462c	0.08948931
4	0xbe372cac	-0.17888135
5	0x3dde2475	0.108467974
6	0xbd2a32da	-0.041552402
7	0x3de0384e	0.10948239
8	0x3c8a1207	0.0168543
9	0xbc68fd74	-0.014220584
10	0x3d357f39	0.044310782
11	0x3bba4b90	0.0056852773
12	0x3da58dc5	0.08083681
13	0xbdaa922d	-0.08328662
14	0xbb95e950	-0.004574932
15	0xbcba8d01	-0.022772314
16	0x3cf0854e	0.02936044
17	0x3bece80b	0.00722981
18	0x3e34c45c	0.1765303
19	0x3d8cd7af	0.06877076
20	0xbd9d8a19	-0.07692356
21	0xbe07771d	-0.13229032
22	0xbcdb255f	-0.026751218
23	0xbdaafb5c	-0.08348724
24	0xbd6c6489	-0.057713065
25	0xb883b1e8	-6.2797044e-05
26	0x3e02ac97	0.1276115
27	0x3deb140c	0.11478433
28	0xbe4d61b2	-0.20056799
29	0x3dd0bc65	0.101921834
30	0x3d377bff	0.044795986
31	0x3e47f46e	0.19526836
32	0x3e0a16a1	0.13485195
33	0xbe3eee72	-0.18645647
34	0xbe4b52d0	-0.19855809
35	0xbddc9ca1	-0.10772062
36	0x3e375292	0.17902592
37	0xbcfeb5c7	-0.031092538
38	0x3da457d7	0.080245666
39	0xbdc8407b	-0.09777924
40	0x3e3d0e04	0.18462378
41	0xbd8785ab	-0.06617292
42	0x3e165d8d	0.14684124
43	0xbab014ff	-0.0013433992
44	0xbdd0ccdf	-0.10195326
45	0x3dbeaaf1	0.09309948
46	0xbdb24e7d	-0.08706377
47	0x3d5a21a3	0.053254735
48	0xbd79326f	-0.060839113
49	0xbc5c4440	-0.013444006
50	0xbe3a40ba	-0.18188754
51	0xbddb45ed	-0.10706697
52	0x3dcfaab7	0.10139983
53	0xbd7f4ec6	-0.062330984
54	0x3e486c04	0.19572455
55	0x3e2c5b20	0.16831636
56	0xbcafbcd5	-0.021452347
57	0xbe12ca34	-0.14334947
58	0x3de63469	0.11240465
59	0x3d73370f	0.05937868
60	0xbdf5acf4	-0.11995879
61	0x3df7d5ec	0.12101349
62	0x3de39618	0.111126125
63	0x3e26c5c3	0.16286378
64	0xbde931f3	-0.1138648
65	0xbcd75d55	-0.026289621
66	0xbb9de284	-0.0048182625
67	0x3caca69d	0.021075541
68	0xbe2707aa	-0.16311517
69	0xbe108f2e	-0.14117119
70	0x3de40651	0.11134017
71	0xbd0d768f	-0.034536894
72	0x3db6512b	0.089022
73	0xbbd496e6	-0.006487715
74	0x3d8ab349	0.06772477
75	0x3d780da4	0.060559884
76	0x3d5ee91e	0.054421537
77	0x3da0c942	0.07850887
78	0xbe4fc93a	-0.20291606
79	0x3db460fb	0.0880756
80	0xbe01c413	-0.12672453
81	0xbe3233ae	-0.17402527
82	0xbccd59a0	-0.02506715
83	0xbd846961	-0.06465412
84	0x3de6c9b1	0.11268938
85	0xbdd0130a	-0.101598814
86	0xbe4dd1da	-0.20099583
87	0x3ddb2c13	0.10701766
88	0xbd89b76e	-0.067244396
89	0x3dee8ab0	0.11647546
90	0x3d9d31b6	0.07675497
91	0xbe30ab1e	-0.17252776
92	0x3bb7aad8	0.005605083
93	0x3c26f7d6	0.010190925
94	0xbdf9e165	-0.12201194
95	0xbdaf7bdd	-0.08568547
96	0x3ceb2d69	0.028708177
97	0x3b3a1530	0.0028393976
98	0xbe03d75d	-0.12875123
99	0xbd65ded4	-0.05612071
100	0x3e25be6f	0.16185926
101	0xbd15d7af	-0.036582645
102	0x3deccefe	0.11562918
103	0x3d933391	0.0718757
104	0xbe0b24cd	-0.13588257
105	0xbe3c7105	-0.18402489
106	0x3e4387cc	0.19094771
107	0x3c43bfd3	0.01194759
108	0x3dff09e4	0.12453058
109	0x3d10fbbf	0.035396334
110	0x3d514fa0	0.051101327
111	0x3e1569ea	0.14591184
112	0x3e4164de	0.18886134
113	0xbe0d4d68	-0.1379906
114	0x3c94bb31	0.018155666
115	0x3e07853a	0.13234416
116	0x3e101982	0.1407223
117	0x3dfb4be5	0.12270335
118	0xbe177f81	-0.14794733
119	0xbe178afc	-0.14799112
120	0xbdf50368	-0.1196354
121	0x3cd1dcbd	0.025617952
122	0x3e494eed	0.19659014
123	0xbe03e0de	-0.12878749
124	0x3dbe2057	0.09283512
125	0xbdf55b00	-0.119802475
126	0xbe3e7c68	-0.18602145
127	0xbd5210e4	-0.05128564
128	0x3de9654a	0.113962725
129	0x3e3d2329	0.18470444
130	0xbe05c677	-0.1306399
131	0x3d355284	0.044268146
132	0x3e2fcf0c	0.17168826
133	0x3e0b08c1	0.13577558
134	0x3df9eed8	0.12203759
135	0x3e1516dc	0.14559501
136	0x3e003ff9	0.12524404
137	0x3d6bdd18	0.0575839
138	0xbe064ecd	-0.13115998
139	0xbe2e2cdf	-0.17009304
140	0xbdb9c3ba	-0.09070535
141	0xbcc35875	-0.02384589
142	0xbded2ce1	-0.115808256
143	0x3d9f927c	0.077916116
144	0x3d823df4	0.06359473
145	0xbd33dad4	-0.043909863
146	0x3da17cec	0.07885155
147	0x3d97e795	0.07417218
148	0x3e069033	0.13140945
149	0x3e11f0ec	0.1425206
150	0xbd9cc6d5	-0.07655112
151	0x3e372ac0	0.17887402
152	0xbd143187	-0.036180045
153	0xbc4811c1	-0.012211264
154	0xbe35927b	-0.17731659
155	0xbe0872a3	-0.1332498
156	0xbe0817f7	-0.13290392
157	0xbdc80bb2	-0.09767856
158	0x3e0e68ff	0.1390724
159	0xbd63c18a	-0.055604495
160	0xbe1d35d9	-0.15352573
161	0x3d77d2fa	0.060503937
162	0x3d53a4d6	0.05167087
163	0x3e0032eb	0.12519424
164	0xbdbf4bc2	-0.093406215
165	0x3d0605a4	0.032720223
166	0xbdb066d5	-0.08613364
167	0xbd733093	-0.059372496
168	0xbe176050	-0.14782834
169	0xbdb0e6b4	-0.08637753
170	0xbd931036	-0.07180826
171	0x3d994583	0.074839614
172	0x3cbf2094	0.023330964
173	0x3d5285cc	0.05139713
174	0x3e4bd504	0.19905478
175	0x3e42c2d0	0.19019628
176	0x3e14710f	0.14496253
177	0x3c604f79	0.013690823
178	0xbe0a9270	-0.13532424
179	0x3e278f07	0.16363154
180	0xbd503010	-0.050827086
181	0xbc386f2b	-0.011256973
182	0xbe2fd646	-0.17171583
183	0xbd327918	-0.043572515
184	0xbe08c0ab	-0.13354747
185	0x3e3b44de	0.1828799
186	0xbe2fad70	-0.17156005
187	0xbe1e7512	-0.15474346
188	0xbc1cb8ff	-0.009565591
189	0xbde64a6b	-0.11244663
190	0x3d8e9522	0.069620386
191	0xbd9dd157	-0.07705944
192	0xbdc28aff	-0.09499168
193	0x3c14fe22	0.009093793
194	0x3e11123d	0.14167114
195	0xbe0e966f	-0.13924573
196	0x3da97a8f	0.08275329
197	0x3e01193a	0.1260728
198	0x3e49ceb2	0.19707754
199	0xbe11c75d	-0.14236207
200	0x3d31ad45	0.043378133
201	0xbe1af7ad	-0.15133543
202	0x3e2768e3	0.16348605
203	0xbd8b77b6	-0.068099424
204	0x3de1525d	0.11002038
205	0x3b99382a	0.0046758847
206	0xbcec3547	-0.028833998
207	0x3b4e6ae6	0.0031496822
208	0x3d2ca56f	0.042149957
209	0x3dab5007	0.083648734
210	0x3cd2ecbc	0.02574765
211	0x3d36ef72	0.044661947
212	0xbe2205da	-0.15822545
213	0x3e17b8d3	0.14816599
214	0x3e260701	0.1621361
215	0x3e20a7e1	0.1568904
216	0x3e06942e	0.13142464
217	0xbdf7a75f	-0.120924704
218	0xbd80485a	-0.062638
219	0x3e2380d8	0.15967119
220	0xbe17616f	-0.14783262
221	0x3e283048	0.16424668
222	0xbe08fb19	-0.13377036
223	0xbdf84b30	-0.12123716
224	0x3daac30e	0.08337985
225	0xbe22e770	-0.15908599
226	0xbd7d3336	-0.061816417
227	0x3e2370cf	0.15961002
228	0x3e2cf1d4	0.16889125
229	0x3e296836	0.1654366
230	0xbd6c5941	-0.057702307
231	0xbe2fa82d	-0.17153998
232	0x3e56f48f	0.20991729
233	0xbd200000	-0.0390625
234	0xbdd1a0ba	-0.10235734
235	0x3d080c18	0.03321466
236	0xbe1c9847	-0.15292464
237	0x3e151bf1	0.1456144
238	0x3dfd6d5c	0.12374374
239	0xbe33d39c	-0.17561191
240	0xbe3616b8	-0.17782104
241	0xbcfaf6d9	-0.030635284
242	0x3dcb5427	0.0992816
243	0xbbc64cc9	-0.006051634
244	0xbdf27a43	-0.11839726
245	0xbc402303	-0.011727097
246	0xbe4cde8b	-0.20006768
247	0xbdf5caeb	-0.12001594
248	0xbe04099c	-0.1289429
249	0x3e0a7f67	0.13525163
250	0x3e2dbf86	0.16967592
251	0xbd988fb5	-0.07449285
252	0xbaa9d655	-0.0012957553
253	0x3dbea3c9	0.09308583
254	0x3d1008cb	0.035164636
255	0xbdd35d38	-0.103205144

bias f4 [16]
0	0xbde7b065	-0.113129415
1	0x3e023385	0.12714966
2	0xbc2e0bfd	-0.010622975
3	0xbe0e966f	-0.13924573
4	0xbd42593d	-0.047448386
5	0xbe39b29f	-0.18134545
6	0xbdd3bfba	-0.10339303
7	0xbe0e9149	-0.1392261
8	0x3de05ac2	0.10954811
9	0xbd111d82	-0.03542853
10	0xbd2df24d	-0.042467404
11	0x3db3a34a	0.08771379
12	0x3d8b6393	0.06806102
13	0xbdec9c15	-0.11553208
14	0x3d87c179	0.06628699
15	0x3d967761	0.073469885

weight f4 [32, 16, 5, 5]
0	0xbd444267	-0.04791489
1	0x3d023e7f	0.031797882
2	0xbd175100	-0.036942482
3	0xbce48e86	-0.027899992
4	0xbd2ee6ef	-0.042700704
5	0x3d235108	0.0398722
6	0x3b54ce00	0.0032471418
7	0x3d0c054e	0.034184746
8	0x3b0ede7c	0.0021800091
9	0x3ce36b8a	0.02776124
10	0xbc5563a0	-0.013024241
11	0xbd3cb5d0	-0.046071827
12	0x3bb2905c	0.005449338
13	0xb87bcc10	-6.003311e-05
14	0xbc3ec901	-0.011644603
15	0xbd21f03e	-0.039535753
16	0xbc38f1a5	-0.011288081
17	0x3c8725f4	0.01649759
18	0x3c024278	0.007950418
19	0xbd294aa3	-0.041330945
20	0x3c0b8e8e	0.008517874
21	0xbc1421eb	-0.00904129
22	0x3d0d34fe	0.034474365
23	0x3cb61b1c	0.022229724
24	0xbd3e5f65	-0.046477694
25	0x3d333495	0.043751318
26	0xbd684a6a	-0.05671159
27	0x3cb83e4d	0.022490645
28	0xbb10ca64	-0.002209329
29	0x3c8f9e7a	0.017531622
30	0xbcd9e79c	-0.026599698
31	0x3ceec052	0.02914444
32	0xbccaba29	-0.024746971
33	0xbd36d26c	-0.044634268
34	0x3c859008	0.016304031
35	0x3cf63ad6	0.030057352
36	0x3d532489	0.051548515
37	0xbb0ec693	-0.002178584
38	0x3d4f0160	0.05053842
39	0x3d125e1c	0.03573428
40	0xbcbdd2c3	-0.023171788
41	0xbd13b2b4	-0.036059096
42	0x3d012555	0.031529743
43	0xbcc8749c	-0.024469666
44	0x3cde44c6	0.027132403
45	0xbd2584c4	-0.04040982
46	0x3d1d97de	0.03847491
47	0x3ca2a424	0.019853659
48	0xbac19690	-0.0014769603
49	0x3ccd37f3	0.025051093
50	0xbd27170d	-0.040793467
51	0xbc84e9a7	-0.016224695
52	0xbaa09bbb	-0.0012253443
53	0xbd0cce02	-0.03437615
54	0xbca7c182	-0.020478014
55	0xbce6e168	-0.028183654
56	0x3d548cb2	0.05189199
57	0x3d3c252e	0.045933895
58	0x3d2f11cb	0.042741578
59	0x3d3b4336	0.045718394
60	0xbd3be169	-0.045869265
61	0x3cb47ae0	0.022031248
62	0x3ccca26e	0.024979796
63	0xbd10af69	-0.035323534
64	0x3cd02b1d	0.025411183
65	0xbcc83ab6	-0.024442058
66	0x3c446a3c	0.011988219
67	0x3cb723b4	0.022355892
68	0x3d4431f4	0.0478992
69	0xbcb13eb8	-0.021636352
70	0xbd31b7a0	-0.04338801
71	0x3d460eaa	0.04835383
72	0x3cbd3117	0.023094697
73	0x3ceca108	0.02888538
74	0x3c79515e	0.015217153
75	0xbccf315f	-0.025292097
76	0x3d22ed61	0.039777163
77	0xbd7dd374	-0.061969236
78	0xbc573a41	-0.013136447
79	0x3c1fcd40	0.009753525
80	0x3cfdc41a	0.030977298
81	0xbc9fb38d	-0.019494796
82	0xbcf8453c	-0.030306451
83	0x3be9f141	0.0071393554
84	0xbd5a3ba3	-0.05327953
85	0xbd28a6d1	-0.041174714
86	0xbd19f0ba	-0.03758309
87	0xbbe2818a	-0.006912415
88	0x3c32d064	0.010913942
89	0xbc93e926	-0.01805551
90	0xbbaf4da4	-0.0053498317
91	0xbd10ae3f	-0.035322424
92	0x3d4c67d6	0.049903713
93	0x3be9deb1	0.0071371426
94	0xbcbfe576	-0.023424845
95	0x3d167b0b	0.036738437
96	0xbd1247d9	-0.03571305
97	0x3cf98127	0.030457092
98	0x3cd7762d	0.026301468
99	0xbd5c2962	-0.053750403
100	0xbd183f99	-0.037170026
101	0xbce54d3f	-0.027990935
102	0xbce8f44d	-0.028436804
103	0x3c2ec007	0.0106659
104	0xbd4598ec	-0.04824154
105	0xbd1c25d0	-0.038122
106	0x3cfafeab	0.030639013
107	0xbc981b7d	-0.018567795
108	0xbc92db01	-0.017926695
109	0xbd262361	-0.040561084
110	0x3cab2089	0.020889537
111	0x3c51cb96	0.012804886
112	0xbc882452	-0.016618881
113	0xbcd1d1bd	-0.025612706
114	0x3c8a1249	0.016854422
115	0x3c9986d0	0.018741041
116	0x3cf7dae3	0.03025574
117	0x3ccbc200	0.02487278
118	0x3adea8d0	0.0016987566
119	0xbcf7c083	-0.030243164
120	0x3d13c20e	0.036073737
121	0x3bcaa8b9	0.006184664
122	0xbcb7481b	-0.02237325
123	0x3d5acf6a	0.05342046
124	0x3d0968f7	0.033547368
125	0xbd0daa8a	-0.034586467
126	0xbc906df2	-0.017630551
127	0xbc896e9a	-0.016776372
128	0xbca9b265	-0.020714948
129	0x3cce5440	0.025186658
130	0xbcc8cd2e	-0.0245119
131	0x3d6a8d75	0.05726381
132	0xbc63bce7	-0.013900018
133	0x3d208830	0.03919238
134	0x3c05f494	0.008175988
135	0xbca5cbdf	-0.020238815
136	0x3d2f631f	0.04281914
137	0xbd0046f2	-0.03131766
138	0xbd0c6609	-0.034276996
139	0x3c17179f	0.00922194
140	0x3d22a262	0.03970564
141	0xbca93462	-0.02065486
142	0xbcbff06a	-0.023430068
143	0xbd017560	-0.03160608
144	0xbcae8126	-0.021301817
145	0xbc24c1e6	-0.010055995
146	0xbc01485f	-0.00789079
147	0xbcedfae2	-0.029050294
148	0x3c866101	0.016403677
149	0x3a2fd5f6	0.0006707603
150	0xbd1f7fe3	-0.03894032
151	0xbcd97789	-0.026546257
152	0x3cb30882	0.021854643
153	0xba6c063f	-0.0009003616
154	0x3d214136	0.03936883
155	0xbc38436b	-0.011246542
156	0xbd2d5ccc	-0.042324826
157	0xbcf124e6	-0.02943654
158	0xbcb65a0a	-0.02225973
159	0xbc30dc34	-0.010794688
160	0x3b515fea	0.0031948038
161	0xbc0b0fda	-0.008487666
162	0x3c843c3d	0.016142005
163	0xbc7220c2	-0.014778318
164	0x3d45e063	0.048309695
165	0x3c95214c	0.018204354
166	0xbc481801	-0.012212754
167	0x3d2f68c9	0.04282454
168	0x3c827594	0.015925206
169	0xbcad282e	-0.021137323
170	0xbc95302a	-0.018211443
171	0x3d11bd01	0.03558064
172	0x3c9f4104	0.019440182
173	0x3d04e5c7	0.032445695
174	0x3b391e4a	0.0028246813
175	0x3cea5cc1	0.028608682
176	0x3cc25520	0.023722231
177	0x3c941782	0.018077616
178	0xbc6f9c5e	-0.014624683
179	0x3d3954da	0.045246936
180	0x3a4fde07	0.0007929508
181	0xbcc716ca	-0.024302859
182	0xbb9dd234	-0.004816318
183	0x3d2b240e	0.04178243
184	0x3d332ea7	0.043745663
185	0xbb2c924d	-0.002633232
186	0x3d231e85	0.039824028
187	0x3c3af617	0.011411211
188	0xbcf88b8d	-0.03033998
189	0xbd599585	-0.05312111
190	0x3cb6a062	0.022293273
191	0x3d03365d	0.032034267
192	0xbd287eb1	-0.041136447
193	0x3c2a9b38	0.010412984
194	0xbb91f36b	-0.0044540665
195	0xbcfafd28	-0.030638292
196	0xbcceb7b6	-0.025234085
197	0x3c2bf537	0.0104954755
198	0x3af0e22d	0.0018377953
199	0x3c94d82f	0.01816949
200	0x3bec20b3	0.0072060465
201	0x3c4b6ed1	0.012416557
202	0x3cf85297	0.03031282
203	0x3b593adb	0.0033146653
204	0xbbbebc60	-0.005820796
205	0xbcde56f2	-0.027141068
206	0x3ce16189	0.027512329
207	0xbb95eb28	-0.004575152
208	0x3cb3e0fc	0.021957867
209	0x3d14ef4c	0.036361024
210	0xbc908983	-0.017643696
211	0x3cf218cc	0.02955284
212	0xbcaf1130	-0.0213705
213	0x3d1583c1	0.036502603
214	0x3cfbdd2b	0.03074511
215	0xbcc1f24a	-0.023675103
216	0xbb712872	-0.003679779
217	0xbd00bf48	-0.03143242
218	0xbcd6169a	-0.026133824
219	0xbc96b874	-0.018398501
220	0xbbf783e4	-0.0075535644
221	0xbcbe3415	-0.023218194
222	0xbd66043e	-0.05615639
223	0xbd14eede	-0.036360614
224	0xbc4d7e2d	-0.01254229
225	0xbc217b1d	-0.009856013
226	0x3d333b9f	0.04375803
227	0x3d2709fd	0.04078101
228	0x3cfe3c4f	0.031034617
229	0x3c8a5b56	0.016889255
230	0xbd2582b4	-0.04040785
231	0x3d66cf15	0.056349833
232	0xbd42c099	-0.047546957
233	0xbca7b6e2	-0.020472948
234	0xbd1d8924	-0.038460866
235	0x3c9e0eba	0.019294132
236	0xbd055a8a	-0.032557048
237	0xbce9a31a	-0.028520156
238	0xbd138472	-0.03601498
239	0xbd082b8d	-0.03324466
240	0xbc9771e9	-0.018486934
241	0x3d7609f8	0.0600681
242	0xbbb106dd	-0.0054024295
243	0x3c7833ea	0.015149096
244	0xbd30c889	-0.043159995
245	0x3d46846d	0.048466135
246	0xb7325920	-1.0630378e-05
247	0xbd3402e7	-0.04394808
248	0x3d187339	0.03721926
249	0xbc12b441	-0.008954109
250	0x3d367866	0.044548415
251	0xbd154317	-0.036440935
252	0xbd6b91b1	-0.05751199
253	0xbd4c34b6	-0.049854957
254	0x3c6f488b	0.014604698
255	0xbbe377e2	-0.0069417814

bias f4 [32]
0	0xbb92042d	-0.004456064
1	0xbd4aac51	-0.04948074
2	0xbd2f555b	-0.04280601
3	0xbd54ce9d	-0.051954854
4	0xbb3c6c7a	-0.002875118
5	0x3d2add6f	0.04171508
6	0xbb104b97	-0.0022017711
7	0x3c1ce2de	0.009575574
8	0xbc2f9530	-0.010716721
9	0x3cdbc26f	0.026826112
10	0x3d4fef97	0.0507656
11	0xbcc197b1	-0.023631902
12	0xbd3cae35	-0.046064574
13	0x3d07d158	0.03315863
14	0x3d1bffc9	0.038085733
15	0x3bfe0078	0.0077515207
16	0xbc9cd77d	-0.019145722
17	0xbc398499	-0.011323118
18	0x3d0b7e13	0.03405578
19	0x3ca0bbc4	0.019620784
20	0xbc8180df	-0.01580852
21	0x3b74619d	0.0037289627
22	0x3c836f98	0.016044423
23	0xbcb8c913	-0.022556817
24	0xbcb61574	-0.022227027
25	0x3ba7465f	0.0051048244
26	0x3c02e5c6	0.007989353
27	0x3d20e254	0.039278343
28	0xbc13e5ab	-0.009026925
29	0x3b8f65af	0.0043761353
30	0x3c88d31e	0.016702231
31	0x3ca27c9f	0.019834815

weight f4 [6, 8000]
0	0x3c594a20	0.013262302
1	0x3a0b5e10	0.00053164456
2	0x3bbd92b7	0.005785312
3	0x3c67d1ea	0.0141491685
4	0x3c8c0615	0.017092744
5	0xbb40706b	-0.0029363881
6	0x3cba1387	0.02271439
7	0x3c87f299	0.016595172
8	0x3b40198f	0.002931211
9	0x3ab193b7	0.0013548051
10	0x3b51c32e	0.0032007205
11	0x3bf75fbd	0.0075492547
12	0x3badc454	0.005302945
13	0x3c923a3f	0.01785004
14	0x3be49828	0.0069761463
15	0x3ca8cabb	0.020604482
16	0x3c85c524	0.016329356
17	0x3c438ea2	0.011935862
18	0x3c1eb9aa	0.00968782
19	0x39443627	0.0001871219
20	0x3c82d434	0.015970327
21	0x3b714724	0.0036816085
22	0xbc167d2e	-0.009185119
23	0x3b61aefc	0.0034436574
24	0xbc0c946c	-0.008580308
25	0x3c36a09f	0.0111466935
26	0x3cb469da	0.02202313
27	0x3c8cc38b	0.017183086
28	0x3c98f3a8	0.018670872
29	0x3c57db72	0.013174878
30	0x3c88fc3b	0.016721835
31	0xb9e90d9a	-0.00044451357
32	0x3c875958	0.016522095
33	0x3c2df7d4	0.010618169
34	0x3c95affe	0.018272396
35	0x3cb030a1	0.021507563
36	0x3bb8374e	0.005621827
37	0x3bef7f58	0.0073088817
38	0x3c698e3f	0.0142551055
39	0xbadbf930	-0.0016782638
40	0x3bbcc531	0.0057608117
41	0x3ac46712	0.0014984331
42	0x3c47781f	0.012174635
43	0x38b7591a	8.7427165e-05
44	0xba8c1b13	-0.0010689221
45	0x3c62d991	0.013845817
46	0x3b873d2c	0.0041271653
47	0x3a86df6f	0.0010289977
48	0x3c97facf	0.018552212
49	0x3c4c3c87	0.012465603
50	0xbba10236	-0.0049135936
51	0x3c0702cd	0.008240414
52	0xbb8be45c	-0.004269166
53	0x3c871bd5	0.016492764
54	0x3b2a3557	0.0025971734
55	0x3c14fa5d	0.009092894
56	0x3c47f6ea	0.012204865
57	0xbc01ffe6	-0.007934546
58	0x3c79b250	0.015240267
59	0x3c41e70f	0.011834874
60	0xbc3d64e9	-0.011559703
61	0x3b405da2	0.0029352685
62	0x3ba76763	0.00510876
63	0xbbed54f1	-0.007242792
64	0xbc039ccb	-0.008032988
65	0x3a2ce19b	0.0006594897
66	0xbb193ec5	-0.002338336
67	0x3a965c18	0.0011471538
68	0xba822e64	-0.0009932038
69	0x3c170147	0.009216613
70	0x3bce11dd	0.0062887506
71	0x3b5d13d9	0.0033733754
72	0x3bbbb835	0.0057287463
73	0x3b29905b	0.0025873396
74	0x3ae93d30	0.0017794725
75	0x3b7ce123	0.003858634
76	0x3c8ebd02	0.01742411
77	0x3c12fd4d	0.008971524
78	0x3c5ffb3b	0.013670738
79	0x3c83c4fc	0.01608514
80	0x3c666dab	0.014064233
81	0xbc3354da	-0.010945523
82	0x3c4e617c	0.012596484
83	0x3b258c18	0.0025260504
84	0x3bc3c53c	0.00597444
85	0xbbfbda2d	-0.0076859207
86	0x3c1fd971	0.009756432
87	0x3c4adb3c	0.012381371
88	0xbb989446	-0.0046563474
89	0x3ca48272	0.020081732
90	0x3bef5276	0.0073035313
91	0xbc3b19dc	-0.01141974
92	0x3c4aa2b1	0.01236789
93	0xbbfe5801	-0.0077619557
94	0x3b2a22cf	0.002596069
95	0x3c919be3	0.017774528
96	0x3bb7004b	0.0055847517
97	0xbb0bd325	-0.0021335569
98	0xbc3ebbe7	-0.011641479
99	0x3c2f5013	0.0107002435
100	0xbae4eef7	-0.0017466237
101	0xba5f5a6e	-0.000852025
102	0xbae76dbf	-0.0017656608
103	0x3c661ae4	0.014044497
104	0xbc52ffa0	-0.012878329
105	0x3b97450d	0.004616386
106	0x3aa2d06b	0.0012421733
107	0xbc7ed95c	-0.015554752
108	0xbc0bf5eb	-0.008542518
109	0x3bdbc1e9	0.0067064655
110	0xbc5bfda8	-0.013427176
111	0x3c111ecf	0.008857443
112	0xbbeac632	-0.00716474
113	0x3b3fde01	0.0029276612
114	0xbb91012f	-0.00442519
115	0xbbba472e	-0.005684755
116	0x3c3a2d3f	0.011363327
117	0xbb3865cc	-0.0028136848
118	0xbb6ca12b	-0.0036106806
119	0x3c436a7f	0.011927246
120	0x36fb8a40	7.4964773e-06
121	0xbc06c1f8	-0.008224957
122	0xbc8c70ae	-0.017143574
123	0x3a500ff6	0.00079369487
124	0xbb7e1b83	-0.0038773722
125	0xbbf34887	-0.0074244174
126	0x3b8b6149	0.0042535407
127	0xbb710224	-0.0036774958
128	0x3becd4d5	0.00722752
129	0x3c2e9a64	0.010656927
130	0x3a975798	0.0011546491
131	0x3bc00252	0.0058596516
132	0x3b114682	0.002216727
133	0xbb584066	-0.0032997369
134	0x3a8120de	0.0009851714
135	0xbb9b4e72	-0.004739576
136	0x3bd5ec3a	0.0065284045
137	0x3b4b26ea	0.0030998536
138	0xbc533a72	-0.012892352
139	0xbb0c1f7f	-0.0021381078
140	0xbc07a140	-0.008278191
141	0xbc64c8ed	-0.01396392
142	0xbc023496	-0.007947108
143	0x3b931cdb	0.004489524
144	0xbb30f594	-0.0027001845
145	0x3b9c8ac1	0.004777283
146	0xbc2b2a4e	-0.010447098
147	0xb9a32c38	-0.00031122728
148	0xbbcde414	-0.0062832925
149	0x3be2ec03	0.0069251074
150	0xbc7e3d16	-0.015517494
151	0x3b2bd47d	0.0026219182
152	0xbbe4d0ac	-0.0069828834
153	0x3ae9d4bd	0.001783989
154	0xbc04c919	-0.008104586
155	0x3c24536c	0.010029655
156	0xba672973	-0.0008818127
157	0x3a087345	0.0005205165
158	0xbb9fd7c6	-0.004878017
159	0x3ba3855b	0.0049902624
160	0xbbb77100	-0.0055981874
161	0x3bce7ee9	0.00630175
162	0x3c0c730f	0.008572354
163	0xbb863de0	-0.0040967315
164	0xbb17d7a8	-0.0023169313
165	0xbb1bfe36	-0.0023802645
166	0xb84eca64	-4.930272e-05
167	0x3b6258b6	0.003453774
168	0x3bc8723f	0.006117135
169	0x3a04dc11	0.0005068193
170	0xbb154efd	-0.0022782676
171	0x3b9c7a82	0.0047753463
172	0xbc96c8a7	-0.018406225
173	0x3af3f371	0.001861198
174	0xbb5224a0	-0.0032065287
175	0xbc51cc8a	-0.012805114
176	0xb9629766	-0.0002160944
177	0xbc22ec56	-0.009944042
178	0xbc0e859d	-0.008698848
179	0xbb81d14e	-0.0039617186
180	0x3a48c802	0.0007659198
181	0x3b0bdd41	0.0021341594
182	0xbc286017	-0.010276816
183	0x3ba555ef	0.0050456445
184	0xbc532571	-0.012887345
185	0xbc4111ac	-0.011783998
186	0x3aaa15f0	0.0012976509
187	0x3c26c52e	0.010178847
188	0x3b8f38f0	0.004370801
189	0x3c50ab7e	0.012736199
190	0xbb63e4ff	-0.0034773943
191	0xbc03493f	-0.008013069
192	0xbc305aae	-0.010763807
193	0xbc3706ee	-0.011171086
194	0x3b92eed6	0.004484038
195	0xba03a639	-0.00050220225
196	0xbb76be24	-0.0037649954
197	0xbb2d1ef2	-0.002641615
198	0x39f1b2f7	0.0004610044
199	0xbb6cd351	-0.0036136697
200	0xbc0f27d0	-0.008737519
201	0x3ba6ac8f	0.0050864886
202	0xbc06fd61	-0.008239121
203	0xbb2177ed	-0.0024638132
204	0xbc3e63c6	-0.0116204675
205	0xbb9f96a1	-0.0048702513
206	0x3b1c972e	0.002389382
207	0x3b65fb86	0.0035092547
208	0xbc2320b2	-0.009956526
209	0x3ab19cc1	0.0013550745
210	0x3b69c6c2	0.0035671447
211	0x3bdfb7f1	0.0068273474
212	0xbbef8653	-0.007309714
213	0x3bae06a8	0.005310852
214	0xbc4385d1	-0.01193376
215	0xbc467d48	-0.01211483
216	0x3bf762fe	0.0075496426
217	0xbb39ff72	-0.0028381017
218	0x3aedec0f	0.0018152016
219	0x3b266263	0.0025388233
220	0xbba5ff9f	-0.005065873
221	0xbbffd168	-0.0078069456
222	0x3b06f46b	0.0020592462
223	0x3b519eb8	0.0031985473
224	0xbbb2be3c	-0.0054548066
225	0x3b30a60e	0.0026954445
226	0x36e20b40	6.7366345e-06
227	0x3a401d56	0.000732859
228	0x3c17bc83	0.009261253
229	0xb86757c0	-5.5156415e-05
230	0xbbddcb33	-0.006768608
231	0xbbb6f857	-0.0055838036
232	0xbc1054b7	-0.00880926
233	0xbb7cdc81	-0.003858358
234	0x3aba7b4f	0.0014227423
235	0xbb222878	-0.002474336
236	0x3be32336	0.0069316877
237	0xbad49757	-0.0016219419
238	0x3c08586d	0.008321864
239	0xba190d34	-0.0005838454
240	0xbc08eb7e	-0.008356927
241	0x3bce3f2f	0.006294153
242	0x3a3238ec	0.0006798643
243	0xbc1ffb32	-0.0097644795
244	0x3b4a4b6a	0.0030867704
245	0xbc7cb072	-0.015422927
246	0xbbda519d	-0.006662561
247	0xbc281d9d	-0.010260967
248	0xba7ff411	-0.0009763847
249	0xbb68d2bc	-0.0035525998
250	0x3c671e7b	0.014106388
251	0xbb8e6b2f	-0.0043462734
252	0xba71b059	-0.0009219698
253	0xbba60e56	-0.005067627
254	0xbb9e8248	-0.004837308
255	0x3b9382eb	0.0045016906

bias f4 [6]
0	0xbb04d238	-0.0020266902
1	0xba8aecad	-0.0010599099
2	0xbc92d3be	-0.017923232
3	0x3ca24f5a	0.019813228
4	0xbceeafec	-0.02913662
5	0xbc86c72b	-0.016452393
